…
initing Conv2d(48, 18, kernel_size=(1, 1), stride=(1, 1))
initing Conv2d(512, 1024, kernel_size=(3, 3), stride=(1, 1), padding=(1, 1), bias=False)
initing BatchNorm2d(1024, eps=1e-05, momentum=0.1, affine=True, track_running_stats=True)
initing Conv2d(1024, 18, kernel_size=(1, 1), stride=(1, 1))
[2021-01-08 16:24:26,964]-[train.py line:143]:Training start,img size is: 416,batchsize is: 1,work number is 0 
[2021-01-08 16:24:26,964]-[train.py line:146]:Build_Model(
  (_Build_Model__yolov4): YOLOv4(
    (backbone): MobilenetV3(
      (_MobilenetV3__submodule): _MobileNetV3(
        (features): Sequential(
          (0): Sequential(
            (0): Conv2d(3, 16, kernel_size=(3, 3), stride=(2, 2), padding=(1, 1), bias=False)
            (1): BatchNorm2d(16, eps=1e-05, momentum=0.1, affine=True, track_running_stats=True)
            (2): h_swish(
              (sigmoid): h_sigmoid(
                (relu): ReLU6(inplace=True)
              )
            )
          )
          (1): InvertedResidual(
            (conv): Sequential(
              (0): Conv2d(16, 16, kernel_size=(3, 3), stride=(2, 2), padding=(1, 1), groups=16, bias=False)
              (1): BatchNorm2d(16, eps=1e-05, momentum=0.1, affine=True, track_running_stats=True)
              (2): ReLU(inplace=True)
              (3): SELayer(
                (avg_pool): AdaptiveAvgPool2d(output_size=1)
                (fc): Sequential(
                  (0): Linear(in_features=16, out_features=8, bias=True)
                  (1): ReLU(inplace=True)
                  (2): Linear(in_features=8, out_features=16, bias=True)
                  (3): h_sigmoid(
                    (relu): ReLU6(inplace=True)
                  )
                )
              )
              (4): Conv2d(16, 16, kernel_size=(1, 1), stride=(1, 1), bias=False)
              (5): BatchNorm2d(16, eps=1e-05, momentum=0.1, affine=True, track_running_stats=True)
            )
          )
          (2): InvertedResidual(
            (conv): Sequential(
              (0): Conv2d(16, 72, kernel_size=(1, 1), stride=(1, 1), bias=False)
              (1): BatchNorm2d(72, eps=1e-05, momentum=0.1, affine=True, track_running_stats=True)
              (2): ReLU(inplace=True)
              (3): Conv2d(72, 72, kernel_size=(3, 3), stride=(2, 2), padding=(1, 1), groups=72, bias=False)
              (4): BatchNorm2d(72, eps=1e-05, momentum=0.1, affine=True, track_running_stats=True)
              (5): Identity()
              (6): ReLU(inplace=True)
              (7): Conv2d(72, 24, kernel_size=(1, 1), stride=(1, 1), bias=False)
              (8): BatchNorm2d(24, eps=1e-05, momentum=0.1, affine=True, track_running_stats=True)
            )
          )
          (3): InvertedResidual(
            (conv): Sequential(
              (0): Conv2d(24, 88, kernel_size=(1, 1), stride=(1, 1), bias=False)
              (1): BatchNorm2d(88, eps=1e-05, momentum=0.1, affine=True, track_running_stats=True)
              (2): ReLU(inplace=True)
              (3): Conv2d(88, 88, kernel_size=(3, 3), stride=(1, 1), padding=(1, 1), groups=88, bias=False)
              (4): BatchNorm2d(88, eps=1e-05, momentum=0.1, affine=True, track_running_stats=True)
              (5): Identity()
              (6): ReLU(inplace=True)
              (7): Conv2d(88, 24, kernel_size=(1, 1), stride=(1, 1), bias=False)
              (8): BatchNorm2d(24, eps=1e-05, momentum=0.1, affine=True, track_running_stats=True)
            )
          )
          (4): InvertedResidual(
            (conv): Sequential(
              (0): Conv2d(24, 96, kernel_size=(1, 1), stride=(1, 1), bias=False)
              (1): BatchNorm2d(96, eps=1e-05, momentum=0.1, affine=True, track_running_stats=True)
              (2): h_swish(
                (sigmoid): h_sigmoid(
                  (relu): ReLU6(inplace=True)
                )
              )
              (3): Conv2d(96, 96, kernel_size=(5, 5), stride=(2, 2), padding=(2, 2), groups=96, bias=False)
              (4): BatchNorm2d(96, eps=1e-05, momentum=0.1, affine=True, track_running_stats=True)
              (5): SELayer(
                (avg_pool): AdaptiveAvgPool2d(output_size=1)
                (fc): Sequential(
                  (0): Linear(in_features=96, out_features=24, bias=True)
                  (1): ReLU(inplace=True)
                  (2): Linear(in_features=24, out_features=96, bias=True)
                  (3): h_sigmoid(
                    (relu): ReLU6(inplace=True)
                  )
                )
              )
              (6): h_swish(
                (sigmoid): h_sigmoid(
                  (relu): ReLU6(inplace=True)
                )
              )
              (7): Conv2d(96, 40, kernel_size=(1, 1), stride=(1, 1), bias=False)
              (8): BatchNorm2d(40, eps=1e-05, momentum=0.1, affine=True, track_running_stats=True)
            )
          )
          (5): InvertedResidual(
            (conv): Sequential(
              (0): Conv2d(40, 240, kernel_size=(1, 1), stride=(1, 1), bias=False)
              (1): BatchNorm2d(240, eps=1e-05, momentum=0.1, affine=True, track_running_stats=True)
              (2): h_swish(
                (sigmoid): h_sigmoid(
                  (relu): ReLU6(inplace=True)
                )
              )
              (3): Conv2d(240, 240, kernel_size=(5, 5), stride=(1, 1), padding=(2, 2), groups=240, bias=False)
              (4): BatchNorm2d(240, eps=1e-05, momentum=0.1, affine=True, track_running_stats=True)
              (5): SELayer(
                (avg_pool): AdaptiveAvgPool2d(output_size=1)
                (fc): Sequential(
                  (0): Linear(in_features=240, out_features=64, bias=True)
                  (1): ReLU(inplace=True)
                  (2): Linear(in_features=64, out_features=240, bias=True)
                  (3): h_sigmoid(
                    (relu): ReLU6(inplace=True)
                  )
                )
              )
              (6): h_swish(
                (sigmoid): h_sigmoid(
                  (relu): ReLU6(inplace=True)
                )
              )
              (7): Conv2d(240, 40, kernel_size=(1, 1), stride=(1, 1), bias=False)
              (8): BatchNorm2d(40, eps=1e-05, momentum=0.1, affine=True, track_running_stats=True)
            )
          )
          (6): InvertedResidual(
            (conv): Sequential(
              (0): Conv2d(40, 240, kernel_size=(1, 1), stride=(1, 1), bias=False)
              (1): BatchNorm2d(240, eps=1e-05, momentum=0.1, affine=True, track_running_stats=True)
              (2): h_swish(
                (sigmoid): h_sigmoid(
                  (relu): ReLU6(inplace=True)
                )
              )
              (3): Conv2d(240, 240, kernel_size=(5, 5), stride=(1, 1), padding=(2, 2), groups=240, bias=False)
              (4): BatchNorm2d(240, eps=1e-05, momentum=0.1, affine=True, track_running_stats=True)
              (5): SELayer(
                (avg_pool): AdaptiveAvgPool2d(output_size=1)
                (fc): Sequential(
                  (0): Linear(in_features=240, out_features=64, bias=True)
                  (1): ReLU(inplace=True)
                  (2): Linear(in_features=64, out_features=240, bias=True)
                  (3): h_sigmoid(
                    (relu): ReLU6(inplace=True)
                  )
                )
              )
              (6): h_swish(
                (sigmoid): h_sigmoid(
                  (relu): ReLU6(inplace=True)
                )
              )
              (7): Conv2d(240, 40, kernel_size=(1, 1), stride=(1, 1), bias=False)
              (8): BatchNorm2d(40, eps=1e-05, momentum=0.1, affine=True, track_running_stats=True)
            )
          )
          (7): InvertedResidual(
            (conv): Sequential(
              (0): Conv2d(40, 120, kernel_size=(1, 1), stride=(1, 1), bias=False)
              (1): BatchNorm2d(120, eps=1e-05, momentum=0.1, affine=True, track_running_stats=True)
              (2): h_swish(
                (sigmoid): h_sigmoid(
                  (relu): ReLU6(inplace=True)
                )
              )
              (3): Conv2d(120, 120, kernel_size=(5, 5), stride=(1, 1), padding=(2, 2), groups=120, bias=False)
              (4): BatchNorm2d(120, eps=1e-05, momentum=0.1, affine=True, track_running_stats=True)
              (5): SELayer(
                (avg_pool): AdaptiveAvgPool2d(output_size=1)
                (fc): Sequential(
                  (0): Linear(in_features=120, out_features=32, bias=True)
                  (1): ReLU(inplace=True)
                  (2): Linear(in_features=32, out_features=120, bias=True)
                  (3): h_sigmoid(
                    (relu): ReLU6(inplace=True)
                  )
                )
              )
              (6): h_swish(
                (sigmoid): h_sigmoid(
                  (relu): ReLU6(inplace=True)
                )
              )
              (7): Conv2d(120, 48, kernel_size=(1, 1), stride=(1, 1), bias=False)
              (8): BatchNorm2d(48, eps=1e-05, momentum=0.1, affine=True, track_running_stats=True)
            )
          )
          (8): InvertedResidual(
            (conv): Sequential(
              (0): Conv2d(48, 144, kernel_size=(1, 1), stride=(1, 1), bias=False)
              (1): BatchNorm2d(144, eps=1e-05, momentum=0.1, affine=True, track_running_stats=True)
              (2): h_swish(
                (sigmoid): h_sigmoid(
                  (relu): ReLU6(inplace=True)
                )
              )
              (3): Conv2d(144, 144, kernel_size=(5, 5), stride=(1, 1), padding=(2, 2), groups=144, bias=False)
              (4): BatchNorm2d(144, eps=1e-05, momentum=0.1, affine=True, track_running_stats=True)
              (5): SELayer(
                (avg_pool): AdaptiveAvgPool2d(output_size=1)
                (fc): Sequential(
                  (0): Linear(in_features=144, out_features=40, bias=True)
                  (1): ReLU(inplace=True)
                  (2): Linear(in_features=40, out_features=144, bias=True)
                  (3): h_sigmoid(
                    (relu): ReLU6(inplace=True)
                  )
                )
              )
              (6): h_swish(
                (sigmoid): h_sigmoid(
                  (relu): ReLU6(inplace=True)
                )
              )
              (7): Conv2d(144, 48, kernel_size=(1, 1), stride=(1, 1), bias=False)
              (8): BatchNorm2d(48, eps=1e-05, momentum=0.1, affine=True, track_running_stats=True)
            )
          )
          (9): InvertedResidual(
            (conv): Sequential(
              (0): Conv2d(48, 288, kernel_size=(1, 1), stride=(1, 1), bias=False)
              (1): BatchNorm2d(288, eps=1e-05, momentum=0.1, affine=True, track_running_stats=True)
              (2): h_swish(
                (sigmoid): h_sigmoid(
                  (relu): ReLU6(inplace=True)
                )
              )
              (3): Conv2d(288, 288, kernel_size=(5, 5), stride=(2, 2), padding=(2, 2), groups=288, bias=False)
              (4): BatchNorm2d(288, eps=1e-05, momentum=0.1, affine=True, track_running_stats=True)
              (5): SELayer(
                (avg_pool): AdaptiveAvgPool2d(output_size=1)
                (fc): Sequential(
                  (0): Linear(in_features=288, out_features=72, bias=True)
                  (1): ReLU(inplace=True)
                  (2): Linear(in_features=72, out_features=288, bias=True)
                  (3): h_sigmoid(
                    (relu): ReLU6(inplace=True)
                  )
                )
              )
              (6): h_swish(
                (sigmoid): h_sigmoid(
                  (relu): ReLU6(inplace=True)
                )
              )
              (7): Conv2d(288, 96, kernel_size=(1, 1), stride=(1, 1), bias=False)
              (8): BatchNorm2d(96, eps=1e-05, momentum=0.1, affine=True, track_running_stats=True)
            )
          )
          (10): InvertedResidual(
            (conv): Sequential(
              (0): Conv2d(96, 576, kernel_size=(1, 1), stride=(1, 1), bias=False)
              (1): BatchNorm2d(576, eps=1e-05, momentum=0.1, affine=True, track_running_stats=True)
              (2): h_swish(
                (sigmoid): h_sigmoid(
                  (relu): ReLU6(inplace=True)
                )
              )
              (3): Conv2d(576, 576, kernel_size=(5, 5), stride=(1, 1), padding=(2, 2), groups=576, bias=False)
              (4): BatchNorm2d(576, eps=1e-05, momentum=0.1, affine=True, track_running_stats=True)
              (5): SELayer(
                (avg_pool): AdaptiveAvgPool2d(output_size=1)
                (fc): Sequential(
                  (0): Linear(in_features=576, out_features=144, bias=True)
                  (1): ReLU(inplace=True)
                  (2): Linear(in_features=144, out_features=576, bias=True)
                  (3): h_sigmoid(
                    (relu): ReLU6(inplace=True)
                  )
                )
              )
              (6): h_swish(
                (sigmoid): h_sigmoid(
                  (relu): ReLU6(inplace=True)
                )
              )
              (7): Conv2d(576, 96, kernel_size=(1, 1), stride=(1, 1), bias=False)
              (8): BatchNorm2d(96, eps=1e-05, momentum=0.1, affine=True, track_running_stats=True)
            )
          )
          (11): InvertedResidual(
            (conv): Sequential(
              (0): Conv2d(96, 576, kernel_size=(1, 1), stride=(1, 1), bias=False)
              (1): BatchNorm2d(576, eps=1e-05, momentum=0.1, affine=True, track_running_stats=True)
              (2): h_swish(
                (sigmoid): h_sigmoid(
                  (relu): ReLU6(inplace=True)
                )
              )
              (3): Conv2d(576, 576, kernel_size=(5, 5), stride=(1, 1), padding=(2, 2), groups=576, bias=False)
              (4): BatchNorm2d(576, eps=1e-05, momentum=0.1, affine=True, track_running_stats=True)
              (5): SELayer(
                (avg_pool): AdaptiveAvgPool2d(output_size=1)
                (fc): Sequential(
                  (0): Linear(in_features=576, out_features=144, bias=True)
                  (1): ReLU(inplace=True)
                  (2): Linear(in_features=144, out_features=576, bias=True)
                  (3): h_sigmoid(
                    (relu): ReLU6(inplace=True)
                  )
                )
              )
              (6): h_swish(
                (sigmoid): h_sigmoid(
                  (relu): ReLU6(inplace=True)
                )
              )
              (7): Conv2d(576, 96, kernel_size=(1, 1), stride=(1, 1), bias=False)
              (8): BatchNorm2d(96, eps=1e-05, momentum=0.1, affine=True, track_running_stats=True)
            )
          )
        )
        (conv): Sequential(
          (0): Conv2d(96, 1024, kernel_size=(1, 1), stride=(1, 1), bias=False)
          (1): BatchNorm2d(1024, eps=1e-05, momentum=0.1, affine=True, track_running_stats=True)
          (2): h_swish(
            (sigmoid): h_sigmoid(
              (relu): ReLU6(inplace=True)
            )
          )
        )
      )
      (_MobilenetV3__extractor): FeatureExtractor(
        (submodule): _MobileNetV3(
          (features): Sequential(
            (0): Sequential(
              (0): Conv2d(3, 16, kernel_size=(3, 3), stride=(2, 2), padding=(1, 1), bias=False)
              (1): BatchNorm2d(16, eps=1e-05, momentum=0.1, affine=True, track_running_stats=True)
              (2): h_swish(
                (sigmoid): h_sigmoid(
                  (relu): ReLU6(inplace=True)
                )
              )
            )
            (1): InvertedResidual(
              (conv): Sequential(
                (0): Conv2d(16, 16, kernel_size=(3, 3), stride=(2, 2), padding=(1, 1), groups=16, bias=False)
                (1): BatchNorm2d(16, eps=1e-05, momentum=0.1, affine=True, track_running_stats=True)
                (2): ReLU(inplace=True)
                (3): SELayer(
                  (avg_pool): AdaptiveAvgPool2d(output_size=1)
                  (fc): Sequential(
                    (0): Linear(in_features=16, out_features=8, bias=True)
                    (1): ReLU(inplace=True)
                    (2): Linear(in_features=8, out_features=16, bias=True)
                    (3): h_sigmoid(
                      (relu): ReLU6(inplace=True)
                    )
                  )
                )
                (4): Conv2d(16, 16, kernel_size=(1, 1), stride=(1, 1), bias=False)
                (5): BatchNorm2d(16, eps=1e-05, momentum=0.1, affine=True, track_running_stats=True)
              )
            )
            (2): InvertedResidual(
              (conv): Sequential(
                (0): Conv2d(16, 72, kernel_size=(1, 1), stride=(1, 1), bias=False)
                (1): BatchNorm2d(72, eps=1e-05, momentum=0.1, affine=True, track_running_stats=True)
                (2): ReLU(inplace=True)
                (3): Conv2d(72, 72, kernel_size=(3, 3), stride=(2, 2), padding=(1, 1), groups=72, bias=False)
                (4): BatchNorm2d(72, eps=1e-05, momentum=0.1, affine=True, track_running_stats=True)
                (5): Identity()
                (6): ReLU(inplace=True)
                (7): Conv2d(72, 24, kernel_size=(1, 1), stride=(1, 1), bias=False)
                (8): BatchNorm2d(24, eps=1e-05, momentum=0.1, affine=True, track_running_stats=True)
              )
            )
            (3): InvertedResidual(
              (conv): Sequential(
                (0): Conv2d(24, 88, kernel_size=(1, 1), stride=(1, 1), bias=False)
                (1): BatchNorm2d(88, eps=1e-05, momentum=0.1, affine=True, track_running_stats=True)
                (2): ReLU(inplace=True)
                (3): Conv2d(88, 88, kernel_size=(3, 3), stride=(1, 1), padding=(1, 1), groups=88, bias=False)
                (4): BatchNorm2d(88, eps=1e-05, momentum=0.1, affine=True, track_running_stats=True)
                (5): Identity()
                (6): ReLU(inplace=True)
                (7): Conv2d(88, 24, kernel_size=(1, 1), stride=(1, 1), bias=False)
                (8): BatchNorm2d(24, eps=1e-05, momentum=0.1, affine=True, track_running_stats=True)
              )
            )
            (4): InvertedResidual(
              (conv): Sequential(
                (0): Conv2d(24, 96, kernel_size=(1, 1), stride=(1, 1), bias=False)
                (1): BatchNorm2d(96, eps=1e-05, momentum=0.1, affine=True, track_running_stats=True)
                (2): h_swish(
                  (sigmoid): h_sigmoid(
                    (relu): ReLU6(inplace=True)
                  )
                )
                (3): Conv2d(96, 96, kernel_size=(5, 5), stride=(2, 2), padding=(2, 2), groups=96, bias=False)
                (4): BatchNorm2d(96, eps=1e-05, momentum=0.1, affine=True, track_running_stats=True)
                (5): SELayer(
                  (avg_pool): AdaptiveAvgPool2d(output_size=1)
                  (fc): Sequential(
                    (0): Linear(in_features=96, out_features=24, bias=True)
                    (1): ReLU(inplace=True)
                    (2): Linear(in_features=24, out_features=96, bias=True)
                    (3): h_sigmoid(
                      (relu): ReLU6(inplace=True)
                    )
                  )
                )
                (6): h_swish(
                  (sigmoid): h_sigmoid(
                    (relu): ReLU6(inplace=True)
                  )
                )
                (7): Conv2d(96, 40, kernel_size=(1, 1), stride=(1, 1), bias=False)
                (8): BatchNorm2d(40, eps=1e-05, momentum=0.1, affine=True, track_running_stats=True)
              )
            )
            (5): InvertedResidual(
              (conv): Sequential(
                (0): Conv2d(40, 240, kernel_size=(1, 1), stride=(1, 1), bias=False)
                (1): BatchNorm2d(240, eps=1e-05, momentum=0.1, affine=True, track_running_stats=True)
                (2): h_swish(
                  (sigmoid): h_sigmoid(
                    (relu): ReLU6(inplace=True)
                  )
                )
                (3): Conv2d(240, 240, kernel_size=(5, 5), stride=(1, 1), padding=(2, 2), groups=240, bias=False)
                (4): BatchNorm2d(240, eps=1e-05, momentum=0.1, affine=True, track_running_stats=True)
                (5): SELayer(
                  (avg_pool): AdaptiveAvgPool2d(output_size=1)
                  (fc): Sequential(
                    (0): Linear(in_features=240, out_features=64, bias=True)
                    (1): ReLU(inplace=True)
                    (2): Linear(in_features=64, out_features=240, bias=True)
                    (3): h_sigmoid(
                      (relu): ReLU6(inplace=True)
                    )
                  )
                )
                (6): h_swish(
                  (sigmoid): h_sigmoid(
                    (relu): ReLU6(inplace=True)
                  )
                )
                (7): Conv2d(240, 40, kernel_size=(1, 1), stride=(1, 1), bias=False)
                (8): BatchNorm2d(40, eps=1e-05, momentum=0.1, affine=True, track_running_stats=True)
              )
            )
            (6): InvertedResidual(
              (conv): Sequential(
                (0): Conv2d(40, 240, kernel_size=(1, 1), stride=(1, 1), bias=False)
                (1): BatchNorm2d(240, eps=1e-05, momentum=0.1, affine=True, track_running_stats=True)
                (2): h_swish(
                  (sigmoid): h_sigmoid(
                    (relu): ReLU6(inplace=True)
                  )
                )
                (3): Conv2d(240, 240, kernel_size=(5, 5), stride=(1, 1), padding=(2, 2), groups=240, bias=False)
                (4): BatchNorm2d(240, eps=1e-05, momentum=0.1, affine=True, track_running_stats=True)
                (5): SELayer(
                  (avg_pool): AdaptiveAvgPool2d(output_size=1)
                  (fc): Sequential(
                    (0): Linear(in_features=240, out_features=64, bias=True)
                    (1): ReLU(inplace=True)
                    (2): Linear(in_features=64, out_features=240, bias=True)
                    (3): h_sigmoid(
                      (relu): ReLU6(inplace=True)
                    )
                  )
                )
                (6): h_swish(
                  (sigmoid): h_sigmoid(
                    (relu): ReLU6(inplace=True)
                  )
                )
                (7): Conv2d(240, 40, kernel_size=(1, 1), stride=(1, 1), bias=False)
                (8): BatchNorm2d(40, eps=1e-05, momentum=0.1, affine=True, track_running_stats=True)
              )
            )
            (7): InvertedResidual(
              (conv): Sequential(
                (0): Conv2d(40, 120, kernel_size=(1, 1), stride=(1, 1), bias=False)
                (1): BatchNorm2d(120, eps=1e-05, momentum=0.1, affine=True, track_running_stats=True)
                (2): h_swish(
                  (sigmoid): h_sigmoid(
                    (relu): ReLU6(inplace=True)
                  )
                )
                (3): Conv2d(120, 120, kernel_size=(5, 5), stride=(1, 1), padding=(2, 2), groups=120, bias=False)
                (4): BatchNorm2d(120, eps=1e-05, momentum=0.1, affine=True, track_running_stats=True)
                (5): SELayer(
                  (avg_pool): AdaptiveAvgPool2d(output_size=1)
                  (fc): Sequential(
                    (0): Linear(in_features=120, out_features=32, bias=True)
                    (1): ReLU(inplace=True)
                    (2): Linear(in_features=32, out_features=120, bias=True)
                    (3): h_sigmoid(
                      (relu): ReLU6(inplace=True)
                    )
                  )
                )
                (6): h_swish(
                  (sigmoid): h_sigmoid(
                    (relu): ReLU6(inplace=True)
                  )
                )
                (7): Conv2d(120, 48, kernel_size=(1, 1), stride=(1, 1), bias=False)
                (8): BatchNorm2d(48, eps=1e-05, momentum=0.1, affine=True, track_running_stats=True)
              )
            )
            (8): InvertedResidual(
              (conv): Sequential(
                (0): Conv2d(48, 144, kernel_size=(1, 1), stride=(1, 1), bias=False)
                (1): BatchNorm2d(144, eps=1e-05, momentum=0.1, affine=True, track_running_stats=True)
                (2): h_swish(
                  (sigmoid): h_sigmoid(
                    (relu): ReLU6(inplace=True)
                  )
                )
                (3): Conv2d(144, 144, kernel_size=(5, 5), stride=(1, 1), padding=(2, 2), groups=144, bias=False)
                (4): BatchNorm2d(144, eps=1e-05, momentum=0.1, affine=True, track_running_stats=True)
                (5): SELayer(
                  (avg_pool): AdaptiveAvgPool2d(output_size=1)
                  (fc): Sequential(
                    (0): Linear(in_features=144, out_features=40, bias=True)
                    (1): ReLU(inplace=True)
                    (2): Linear(in_features=40, out_features=144, bias=True)
                    (3): h_sigmoid(
                      (relu): ReLU6(inplace=True)
                    )
                  )
                )
                (6): h_swish(
                  (sigmoid): h_sigmoid(
                    (relu): ReLU6(inplace=True)
                  )
                )
                (7): Conv2d(144, 48, kernel_size=(1, 1), stride=(1, 1), bias=False)
                (8): BatchNorm2d(48, eps=1e-05, momentum=0.1, affine=True, track_running_stats=True)
              )
            )
            (9): InvertedResidual(
              (conv): Sequential(
                (0): Conv2d(48, 288, kernel_size=(1, 1), stride=(1, 1), bias=False)
                (1): BatchNorm2d(288, eps=1e-05, momentum=0.1, affine=True, track_running_stats=True)
                (2): h_swish(
                  (sigmoid): h_sigmoid(
                    (relu): ReLU6(inplace=True)
                  )
                )
                (3): Conv2d(288, 288, kernel_size=(5, 5), stride=(2, 2), padding=(2, 2), groups=288, bias=False)
                (4): BatchNorm2d(288, eps=1e-05, momentum=0.1, affine=True, track_running_stats=True)
                (5): SELayer(
                  (avg_pool): AdaptiveAvgPool2d(output_size=1)
                  (fc): Sequential(
                    (0): Linear(in_features=288, out_features=72, bias=True)
                    (1): ReLU(inplace=True)
                    (2): Linear(in_features=72, out_features=288, bias=True)
                    (3): h_sigmoid(
                      (relu): ReLU6(inplace=True)
                    )
                  )
                )
                (6): h_swish(
                  (sigmoid): h_sigmoid(
                    (relu): ReLU6(inplace=True)
                  )
                )
                (7): Conv2d(288, 96, kernel_size=(1, 1), stride=(1, 1), bias=False)
                (8): BatchNorm2d(96, eps=1e-05, momentum=0.1, affine=True, track_running_stats=True)
              )
            )
            (10): InvertedResidual(
              (conv): Sequential(
                (0): Conv2d(96, 576, kernel_size=(1, 1), stride=(1, 1), bias=False)
                (1): BatchNorm2d(576, eps=1e-05, momentum=0.1, affine=True, track_running_stats=True)
                (2): h_swish(
                  (sigmoid): h_sigmoid(
                    (relu): ReLU6(inplace=True)
                  )
                )
                (3): Conv2d(576, 576, kernel_size=(5, 5), stride=(1, 1), padding=(2, 2), groups=576, bias=False)
                (4): BatchNorm2d(576, eps=1e-05, momentum=0.1, affine=True, track_running_stats=True)
                (5): SELayer(
                  (avg_pool): AdaptiveAvgPool2d(output_size=1)
                  (fc): Sequential(
                    (0): Linear(in_features=576, out_features=144, bias=True)
                    (1): ReLU(inplace=True)
                    (2): Linear(in_features=144, out_features=576, bias=True)
                    (3): h_sigmoid(
                      (relu): ReLU6(inplace=True)
                    )
                  )
                )
                (6): h_swish(
                  (sigmoid): h_sigmoid(
                    (relu): ReLU6(inplace=True)
                  )
                )
                (7): Conv2d(576, 96, kernel_size=(1, 1), stride=(1, 1), bias=False)
                (8): BatchNorm2d(96, eps=1e-05, momentum=0.1, affine=True, track_running_stats=True)
              )
            )
            (11): InvertedResidual(
              (conv): Sequential(
                (0): Conv2d(96, 576, kernel_size=(1, 1), stride=(1, 1), bias=False)
                (1): BatchNorm2d(576, eps=1e-05, momentum=0.1, affine=True, track_running_stats=True)
                (2): h_swish(
                  (sigmoid): h_sigmoid(
                    (relu): ReLU6(inplace=True)
                  )
                )
                (3): Conv2d(576, 576, kernel_size=(5, 5), stride=(1, 1), padding=(2, 2), groups=576, bias=False)
                (4): BatchNorm2d(576, eps=1e-05, momentum=0.1, affine=True, track_running_stats=True)
                (5): SELayer(
                  (avg_pool): AdaptiveAvgPool2d(output_size=1)
                  (fc): Sequential(
                    (0): Linear(in_features=576, out_features=144, bias=True)
                    (1): ReLU(inplace=True)
                    (2): Linear(in_features=144, out_features=576, bias=True)
                    (3): h_sigmoid(
                      (relu): ReLU6(inplace=True)
                    )
                  )
                )
                (6): h_swish(
                  (sigmoid): h_sigmoid(
                    (relu): ReLU6(inplace=True)
                  )
                )
                (7): Conv2d(576, 96, kernel_size=(1, 1), stride=(1, 1), bias=False)
                (8): BatchNorm2d(96, eps=1e-05, momentum=0.1, affine=True, track_running_stats=True)
              )
            )
          )
          (conv): Sequential(
            (0): Conv2d(96, 1024, kernel_size=(1, 1), stride=(1, 1), bias=False)
            (1): BatchNorm2d(1024, eps=1e-05, momentum=0.1, affine=True, track_running_stats=True)
            (2): h_swish(
              (sigmoid): h_sigmoid(
                (relu): ReLU6(inplace=True)
              )
            )
          )
        )
      )
    )
    (attention): ContextBlock2d(
      (conv_mask): Conv2d(1024, 1, kernel_size=(1, 1), stride=(1, 1))
      (softmax): Softmax(dim=2)
      (channel_add_conv): Sequential(
        (0): Conv2d(1024, 1024, kernel_size=(1, 1), stride=(1, 1))
        (1): LayerNorm((1024, 1, 1), eps=1e-05, elementwise_affine=True)
        (2): ReLU(inplace=True)
        (3): Conv2d(1024, 1024, kernel_size=(1, 1), stride=(1, 1))
      )
    )
    (spp): SpatialPyramidPooling(
      (head_conv): Sequential(
        (0): Conv(
          (conv): Sequential(
            (0): Conv2d(1024, 512, kernel_size=(1, 1), stride=(1, 1), bias=False)
            (1): BatchNorm2d(512, eps=1e-05, momentum=0.1, affine=True, track_running_stats=True)
            (2): LeakyReLU(negative_slope=0.01)
          )
        )
        (1): Conv(
          (conv): Sequential(
            (0): Conv2d(512, 1024, kernel_size=(3, 3), stride=(1, 1), padding=(1, 1), bias=False)
            (1): BatchNorm2d(1024, eps=1e-05, momentum=0.1, affine=True, track_running_stats=True)
            (2): LeakyReLU(negative_slope=0.01)
          )
        )
        (2): Conv(
          (conv): Sequential(
            (0): Conv2d(1024, 512, kernel_size=(1, 1), stride=(1, 1), bias=False)
            (1): BatchNorm2d(512, eps=1e-05, momentum=0.1, affine=True, track_running_stats=True)
            (2): LeakyReLU(negative_slope=0.01)
          )
        )
      )
      (maxpools): ModuleList(
        (0): MaxPool2d(kernel_size=5, stride=1, padding=2, dilation=1, ceil_mode=False)
        (1): MaxPool2d(kernel_size=9, stride=1, padding=4, dilation=1, ceil_mode=False)
        (2): MaxPool2d(kernel_size=13, stride=1, padding=6, dilation=1, ceil_mode=False)
      )
    )
    (panet): PANet(
      (feature_transform3): Conv(
        (conv): Sequential(
          (0): Conv2d(24, 12, kernel_size=(1, 1), stride=(1, 1), bias=False)
          (1): BatchNorm2d(12, eps=1e-05, momentum=0.1, affine=True, track_running_stats=True)
          (2): LeakyReLU(negative_slope=0.01)
        )
      )
      (feature_transform4): Conv(
        (conv): Sequential(
          (0): Conv2d(48, 24, kernel_size=(1, 1), stride=(1, 1), bias=False)
          (1): BatchNorm2d(24, eps=1e-05, momentum=0.1, affine=True, track_running_stats=True)
          (2): LeakyReLU(negative_slope=0.01)
        )
      )
      (resample5_4): Upsample(
        (upsample): Sequential(
          (0): Conv(
            (conv): Sequential(
              (0): Conv2d(512, 24, kernel_size=(1, 1), stride=(1, 1), bias=False)
              (1): BatchNorm2d(24, eps=1e-05, momentum=0.1, affine=True, track_running_stats=True)
              (2): LeakyReLU(negative_slope=0.01)
            )
          )
          (1): Upsample(scale_factor=2.0, mode=nearest)
        )
      )
      (resample4_3): Upsample(
        (upsample): Sequential(
          (0): Conv(
            (conv): Sequential(
              (0): Conv2d(24, 12, kernel_size=(1, 1), stride=(1, 1), bias=False)
              (1): BatchNorm2d(12, eps=1e-05, momentum=0.1, affine=True, track_running_stats=True)
              (2): LeakyReLU(negative_slope=0.01)
            )
          )
          (1): Upsample(scale_factor=2.0, mode=nearest)
        )
      )
      (resample3_4): Downsample(
        (downsample): Conv(
          (conv): Sequential(
            (0): Conv2d(12, 24, kernel_size=(3, 3), stride=(2, 2), padding=(1, 1), bias=False)
            (1): BatchNorm2d(24, eps=1e-05, momentum=0.1, affine=True, track_running_stats=True)
            (2): LeakyReLU(negative_slope=0.01)
          )
        )
      )
      (resample4_5): Downsample(
        (downsample): Conv(
          (conv): Sequential(
            (0): Conv2d(24, 512, kernel_size=(3, 3), stride=(2, 2), padding=(1, 1), bias=False)
            (1): BatchNorm2d(512, eps=1e-05, momentum=0.1, affine=True, track_running_stats=True)
            (2): LeakyReLU(negative_slope=0.01)
          )
        )
      )
      (downstream_conv5): Sequential(
        (0): Conv(
          (conv): Sequential(
            (0): Conv2d(2048, 512, kernel_size=(1, 1), stride=(1, 1), bias=False)
            (1): BatchNorm2d(512, eps=1e-05, momentum=0.1, affine=True, track_running_stats=True)
            (2): LeakyReLU(negative_slope=0.01)
          )
        )
        (1): Conv(
          (conv): Sequential(
            (0): Conv2d(512, 1024, kernel_size=(3, 3), stride=(1, 1), padding=(1, 1), bias=False)
            (1): BatchNorm2d(1024, eps=1e-05, momentum=0.1, affine=True, track_running_stats=True)
            (2): LeakyReLU(negative_slope=0.01)
          )
        )
        (2): Conv(
          (conv): Sequential(
            (0): Conv2d(1024, 512, kernel_size=(1, 1), stride=(1, 1), bias=False)
            (1): BatchNorm2d(512, eps=1e-05, momentum=0.1, affine=True, track_running_stats=True)
            (2): LeakyReLU(negative_slope=0.01)
          )
        )
      )
      (downstream_conv4): Sequential(
        (0): Conv(
          (conv): Sequential(
            (0): Conv2d(48, 24, kernel_size=(1, 1), stride=(1, 1), bias=False)
            (1): BatchNorm2d(24, eps=1e-05, momentum=0.1, affine=True, track_running_stats=True)
            (2): LeakyReLU(negative_slope=0.01)
          )
        )
        (1): Conv(
          (conv): Sequential(
            (0): Conv2d(24, 48, kernel_size=(3, 3), stride=(1, 1), padding=(1, 1), bias=False)
            (1): BatchNorm2d(48, eps=1e-05, momentum=0.1, affine=True, track_running_stats=True)
            (2): LeakyReLU(negative_slope=0.01)
          )
        )
        (2): Conv(
          (conv): Sequential(
            (0): Conv2d(48, 24, kernel_size=(1, 1), stride=(1, 1), bias=False)
            (1): BatchNorm2d(24, eps=1e-05, momentum=0.1, affine=True, track_running_stats=True)
            (2): LeakyReLU(negative_slope=0.01)
          )
        )
        (3): Conv(
          (conv): Sequential(
            (0): Conv2d(24, 48, kernel_size=(3, 3), stride=(1, 1), padding=(1, 1), bias=False)
            (1): BatchNorm2d(48, eps=1e-05, momentum=0.1, affine=True, track_running_stats=True)
            (2): LeakyReLU(negative_slope=0.01)
          )
        )
        (4): Conv(
          (conv): Sequential(
            (0): Conv2d(48, 24, kernel_size=(1, 1), stride=(1, 1), bias=False)
            (1): BatchNorm2d(24, eps=1e-05, momentum=0.1, affine=True, track_running_stats=True)
            (2): LeakyReLU(negative_slope=0.01)
          )
        )
      )
      (downstream_conv3): Sequential(
        (0): Conv(
          (conv): Sequential(
            (0): Conv2d(24, 12, kernel_size=(1, 1), stride=(1, 1), bias=False)
            (1): BatchNorm2d(12, eps=1e-05, momentum=0.1, affine=True, track_running_stats=True)
            (2): LeakyReLU(negative_slope=0.01)
          )
        )
        (1): Conv(
          (conv): Sequential(
            (0): Conv2d(12, 24, kernel_size=(3, 3), stride=(1, 1), padding=(1, 1), bias=False)
            (1): BatchNorm2d(24, eps=1e-05, momentum=0.1, affine=True, track_running_stats=True)
            (2): LeakyReLU(negative_slope=0.01)
          )
        )
        (2): Conv(
          (conv): Sequential(
            (0): Conv2d(24, 12, kernel_size=(1, 1), stride=(1, 1), bias=False)
            (1): BatchNorm2d(12, eps=1e-05, momentum=0.1, affine=True, track_running_stats=True)
            (2): LeakyReLU(negative_slope=0.01)
          )
        )
        (3): Conv(
          (conv): Sequential(
            (0): Conv2d(12, 24, kernel_size=(3, 3), stride=(1, 1), padding=(1, 1), bias=False)
            (1): BatchNorm2d(24, eps=1e-05, momentum=0.1, affine=True, track_running_stats=True)
            (2): LeakyReLU(negative_slope=0.01)
          )
        )
        (4): Conv(
          (conv): Sequential(
            (0): Conv2d(24, 12, kernel_size=(1, 1), stride=(1, 1), bias=False)
            (1): BatchNorm2d(12, eps=1e-05, momentum=0.1, affine=True, track_running_stats=True)
            (2): LeakyReLU(negative_slope=0.01)
          )
        )
      )
      (upstream_conv4): Sequential(
        (0): Conv(
          (conv): Sequential(
            (0): Conv2d(48, 24, kernel_size=(1, 1), stride=(1, 1), bias=False)
            (1): BatchNorm2d(24, eps=1e-05, momentum=0.1, affine=True, track_running_stats=True)
            (2): LeakyReLU(negative_slope=0.01)
          )
        )
        (1): Conv(
          (conv): Sequential(
            (0): Conv2d(24, 48, kernel_size=(3, 3), stride=(1, 1), padding=(1, 1), bias=False)
            (1): BatchNorm2d(48, eps=1e-05, momentum=0.1, affine=True, track_running_stats=True)
            (2): LeakyReLU(negative_slope=0.01)
          )
        )
        (2): Conv(
          (conv): Sequential(
            (0): Conv2d(48, 24, kernel_size=(1, 1), stride=(1, 1), bias=False)
            (1): BatchNorm2d(24, eps=1e-05, momentum=0.1, affine=True, track_running_stats=True)
            (2): LeakyReLU(negative_slope=0.01)
          )
        )
        (3): Conv(
          (conv): Sequential(
            (0): Conv2d(24, 48, kernel_size=(3, 3), stride=(1, 1), padding=(1, 1), bias=False)
            (1): BatchNorm2d(48, eps=1e-05, momentum=0.1, affine=True, track_running_stats=True)
            (2): LeakyReLU(negative_slope=0.01)
          )
        )
        (4): Conv(
          (conv): Sequential(
            (0): Conv2d(48, 24, kernel_size=(1, 1), stride=(1, 1), bias=False)
            (1): BatchNorm2d(24, eps=1e-05, momentum=0.1, affine=True, track_running_stats=True)
            (2): LeakyReLU(negative_slope=0.01)
          )
        )
      )
      (upstream_conv5): Sequential(
        (0): Conv(
          (conv): Sequential(
            (0): Conv2d(1024, 512, kernel_size=(1, 1), stride=(1, 1), bias=False)
            (1): BatchNorm2d(512, eps=1e-05, momentum=0.1, affine=True, track_running_stats=True)
            (2): LeakyReLU(negative_slope=0.01)
          )
        )
        (1): Conv(
          (conv): Sequential(
            (0): Conv2d(512, 1024, kernel_size=(3, 3), stride=(1, 1), padding=(1, 1), bias=False)
            (1): BatchNorm2d(1024, eps=1e-05, momentum=0.1, affine=True, track_running_stats=True)
            (2): LeakyReLU(negative_slope=0.01)
          )
        )
        (2): Conv(
          (conv): Sequential(
            (0): Conv2d(1024, 512, kernel_size=(1, 1), stride=(1, 1), bias=False)
            (1): BatchNorm2d(512, eps=1e-05, momentum=0.1, affine=True, track_running_stats=True)
            (2): LeakyReLU(negative_slope=0.01)
          )
        )
        (3): Conv(
          (conv): Sequential(
            (0): Conv2d(512, 1024, kernel_size=(3, 3), stride=(1, 1), padding=(1, 1), bias=False)
            (1): BatchNorm2d(1024, eps=1e-05, momentum=0.1, affine=True, track_running_stats=True)
            (2): LeakyReLU(negative_slope=0.01)
          )
        )
        (4): Conv(
          (conv): Sequential(
            (0): Conv2d(1024, 512, kernel_size=(1, 1), stride=(1, 1), bias=False)
            (1): BatchNorm2d(512, eps=1e-05, momentum=0.1, affine=True, track_running_stats=True)
            (2): LeakyReLU(negative_slope=0.01)
          )
        )
      )
    )
    (predict_net): PredictNet(
      (predict_conv): ModuleList(
        (0): Sequential(
          (0): Conv(
            (conv): Sequential(
              (0): Conv2d(12, 24, kernel_size=(3, 3), stride=(1, 1), padding=(1, 1), bias=False)
              (1): BatchNorm2d(24, eps=1e-05, momentum=0.1, affine=True, track_running_stats=True)
              (2): LeakyReLU(negative_slope=0.01)
            )
          )
          (1): Conv2d(24, 18, kernel_size=(1, 1), stride=(1, 1))
        )
        (1): Sequential(
          (0): Conv(
            (conv): Sequential(
              (0): Conv2d(24, 48, kernel_size=(3, 3), stride=(1, 1), padding=(1, 1), bias=False)
              (1): BatchNorm2d(48, eps=1e-05, momentum=0.1, affine=True, track_running_stats=True)
              (2): LeakyReLU(negative_slope=0.01)
            )
          )
          (1): Conv2d(48, 18, kernel_size=(1, 1), stride=(1, 1))
        )
        (2): Sequential(
          (0): Conv(
            (conv): Sequential(
              (0): Conv2d(512, 1024, kernel_size=(3, 3), stride=(1, 1), padding=(1, 1), bias=False)
              (1): BatchNorm2d(1024, eps=1e-05, momentum=0.1, affine=True, track_running_stats=True)
              (2): LeakyReLU(negative_slope=0.01)
            )
          )
          (1): Conv2d(1024, 18, kernel_size=(1, 1), stride=(1, 1))
        )
      )
    )
  )
  (_Build_Model__head_s): Yolo_head()
  (_Build_Model__head_m): Yolo_head()
  (_Build_Model__head_l): Yolo_head()
) 
[2021-01-08 16:24:26,969]-[train.py line:148]:Train datasets number is : 198 
[2021-01-08 16:24:26,970]-[train.py line:155]:        =======  start  training   ======      
[2021-01-08 16:24:26,971]-[train.py line:161]:===Epoch:[0/120]=== 
…
